trained_models/neural_model.pth (torch, 14673 bytes, 6 tensors)

network.0.weight f4 [64, 10]
-0.21922535 0.22961655 -0.18922772 0.26912642 0.042154007 0.031936537 -0.14648627 -0.3213292
-0.11726823 -0.05647306 0.15390731 -0.31695402 0.17399985 -0.10903292 -0.07360897 -0.25141296
-0.21582694 -0.18798281 0.14660901 -0.34559357 0.08485267 -0.1683759 -0.11570221 0.30172104
-0.1102798 -0.08480263 0.025317334 -0.3504352 0.16122335 0.27399635 -0.1844735 0.23243238
-0.12336413 -0.18020436 0.037348855 0.021008063 -0.07108435 0.2298365 -0.07565404 0.10947641
0.105214484 0.2631694 -0.014587203 0.10801289 0.08529143 -0.061788756 -0.060963184 0.13694327
-0.17902714 0.17066984 -0.023777187 0.09925296 -0.20990264 0.19665891 -0.07365624 -0.13546008
-0.06303819 0.0596215 -0.29247466 -0.17484872 0.06512046 -0.21662991 -0.2748232 0.21024048
-0.31189328 -0.13688141 -0.07080029 0.2800953 0.10489127 -0.27376303 -0.092113055 0.1274808
-0.013621757 -0.015837103 0.24371062 -0.2699412 0.22832876 0.05439204 -0.26462343 0.22705296
-0.016506173 0.18186958 -0.17820713 0.21122551 0.3258412 -0.14229904 0.21270472 0.12495353
-0.21493608 -0.1997249 -0.29455236 0.15592626 0.05575791 -0.18858199 0.011602244 0.22747041
0.01495475 -0.27753758 0.02379566 0.13447475 0.14255287 0.1479454 0.3185504 -0.2553915
0.056319773 0.1845686 0.052163646 0.09173691 0.08538994 -0.18919426 -0.06158999 0.2679965
0.2822452 0.27030367 -0.057487532 0.014636328 0.024345947 0.061907526 0.25133973 0.10236863
0.15314086 0.30283424 0.28231555 0.24596676 -0.26336142 -0.024468027 0.035238944 -0.1597966
-0.27885026 0.25572863 -0.024307655 -0.14540628 0.18098447 -0.25589532 0.16175115 0.22021939
-0.16611665 -0.15192738 0.20811273 -0.06590357 -0.20411639 0.16404875 -0.20351145 0.033611532
0.3293523 0.22156362 0.061990976 0.01410345 0.19928439 0.037978236 -0.16850823 -0.28914222
-0.18657134 0.1554342 0.050778434 -0.14138025 -0.30752575 -0.167163 -0.199826 0.1584665
-0.0063706012 0.3569846 -0.1425118 0.021497905 0.24057701 -0.32819572 0.06832009 -0.21411826
-0.13106191 -0.13675928 0.19976301 0.12617913 -0.26140648 0.2813387 0.1611144 0.14437038
0.060136054 0.07009098 -0.1761296 0.14447965 0.28854263 0.31515336 -0.12114547 -0.08790335
0.0024117716 0.21064839 -0.029910125 0.03568897 0.033690326 -0.005418204 0.0779566 0.31810126
-0.08590055 -0.019329328 -0.012066862 0.18725754 -0.08462537 0.025415458 0.112582244 0.05328302
0.22123027 0.018441884 -0.25709137 0.25011998 0.2800465 0.12307294 -0.23191948 -0.26897988
-0.19178323 -0.07410808 0.27013218 0.06857846 -0.0057742316 -0.23120178 -0.055332456 -0.18733239
0.11318874 0.3069299 0.28166255 -0.24246767 -0.32198462 -0.2520214 0.09264132 0.21033052
0.16397402 0.14429463 0.24249633 0.18961568 -0.12750831 -0.21270956 -0.050232228 0.29620412
0.20922503 0.27395228 0.19199757 -0.20168915 -0.05036392 -0.006445732 -0.009382984 0.1090413
-0.104511 0.16830221 0.08874028 -0.16175804 0.11346669 -0.06133003 0.26067886 -0.01033753
-0.12096136 0.290513 -0.22151962 0.20438723 -0.10933356 -0.022371188 -0.11026637 -0.27215856
00000000: 9c7c 60be 9a20 6b3e e9c4 41be f0ca 893e
00000010: aea9 2c3d e3cf 023d 7f00 16be 4385 a4be
00000020: 532a f0bd 4c50 67bd e199 1d3e cc47 a2be
00000030: 042d 323e a74c dfbd 4dc0 96bd 33b9 80be
00000040: bd01 5dbe 917e 40be ac20 163e a4f1 b0be
00000050: 3dc7 ad3d bb6a 2cbe 48f5 ecbd 2e7b 9a3e
00000060: 60da e1bd 00ad adbd 4c66 cf3c 3e6c b3be
00000070: bc17 253e 4049 8c3e 9fe6 3cbe c102 6e3e
00000080: 55a6 fcbd 7e87 38be 1dfb 183d 1a19 ac3c
00000090: ac94 91bd 425a 6b3e 81f0 9abd 2b35 e03d
000000a0: b17a d73d 24be 863e 2aff 6ebc dd35 dd3d
000000b0: 46ad ae3d 3516 7dbd 88b4 79bd db3a 0c3e
000000c0: e452 37be 13c4 2e3e 60c8 c2bc 2345 cb3d
000000d0: b8f0 56be f460 493e 15d9 96bd 0cb6 0abe
000000e0: 2b1a 81bd ad35 743d 3dbf 95be 8b0b 33be
000000f0: e05d 853d 3bd4 5dbe a0b5 8cbe 4849 573e
00000100: 7ab0 9fbe a42a 0cbe beff 90bd a768 8f3e
00000110: 3cd1 d63d ab2a 8cbe c5a5 bcbd 548a 023e
00000120: ca2d 5fbc d0bc 81bc 478f 793e bc35 8abe
00000130: 04cf 693e 30ca 5e3d b97c 87be 9280 683e
00000140: f437 87bc 053c 3a3e ee7b 36be 804b 583e
00000150: a8d4 a63e d7b6 11be 44cf 593e a3e7 ff3d
00000160: 3418 5cbe af84 4cbe 91cf 96be 22ab 1f3e
00000170: 6862 643d a31b 41be 5717 3e3c 01ee 683e
00000180: c504 753c 6819 8ebe 1eef c23c c0b3 093e
00000190: 61f9 113e 007f 173e 0a19 a33e adc2 82be
000001a0: 90af 663d 8dff 3c3e 8ca9 553d 90e0 bb3d
000001b0: ece0 ae3d 24bc 41be c945 7cbd d636 893e
000001c0: 7182 903e 3e65 8a3e 0c78 6bbd 36cd 6f3c
000001d0: 2771 c73c bf92 7d3d 9aaf 803e a5a6 d13d
000001e0: f5d0 1c3e 170d 9b3e aa8b 903e b6de 7b3e
000001f0: 4fd7 86be 2c71 c8bc b656 103d b8a1 23be
00000200: 76c5 8ebe ddee 823e d920 c7bc 62e5 14be
00000210: fe53 393e b604 83be 18a2 253e 3181 613e
00000220: 7c1a 2abe da92 1bbe 811b 553e 73f8 86bd
00000230: e303 51be 65fc 273e 4e65 50be 3fac 093d
00000240: dda0 a83e 93e1 623e 40ea 7d3d 2812 673c
00000250: 3511 4c3e 118f 1b3d 6c8d 2cbe 730a 94be
00000260: 8f0c 3fbe 252a 1f3e 0cfd 4f3d fcc5 10be
00000270: 0474 9dbe c72c 2bbe 309f 4cbe 0b45 223e
00000280: 7ac0 d0bb afc6 b63e 9dee 11be 601c b03c
00000290: d259 763e 4509 a8be 67eb 8b3d d141 5bbe
000002a0: 1835 06be a00a 0cbe ad8e 4c3e 1a35 013e
000002b0: 12d7 85be a00b 903e 2cfb 243e d4d5 133e
000002c0: 3951 763d dc8b 8f3d 515b 34be 79f2 133e
000002d0: dcbb 933e c85b a13e 1e1b f8bd ac06 b4bd
000002e0: d00e 1e3b 36b4 573e 1406 f5bc 992e 123d
000002f0: defe 093d 308b b1bb b6a7 9f3d 2bde a23e
00000300: a1ec afbd 8a58 9ebc 16b4 45bc 71c0 3f3e
00000310: 1150 adbd 1434 d03c 8591 e63d 4c3f 5a3d
00000320: 308a 623e 6f13 973c 7ba1 83be ba0f 803e
00000330: 4162 8f3e aa0d fc3d 4d7c 6dbe bbb7 89be
00000340: d362 44be fac5 97bd c44e 8a3e dd72 8c3d
00000350: c435 bdbb 29c0 6cbe 49a4 62bd 10d4 3fbe
00000360: 80cf e73d ea25 9d3e 1336 903e 7249 78be
00000370: 2bdb a4be f308 81be bbba bd3d e260 573e
00000380: cee8 273e f9c1 133e f550 783e 9d2a 423e
00000390: 8a91 02be 89d0 59be 4fc0 4dbd 11a8 973e
000003a0: 163f 563e 7943 8c3e 039b 443e 9a87 4ebe
000003b0: 664a 4ebd b836 d3bb 16bb 19bc 0c51 df3d
000003c0: dd09 d6bd 6a57 2c3e 77bd b53d e6a3 25be
000003d0: 3961 e83d 3335 7bbd b377 853e be5e 29bc
000003e0: 97ba f7bd 1fbe 943e 0ad6 62be e34a 513e
000003f0: 46ea dfbd c843 b7bc 56d3 e1bd 5e58 8bbe

network.0.bias f4 [64]
-0.041078474 0.20741731 0.059709597 0.25888216 0.2129603 -0.117477186 0.1306032 -0.12455871
-0.05816835 0.15394258 0.23208301 -0.28004295 -0.021953713 0.033840854 -0.26562563 -0.2115444
0.0028774776 0.106882 0.19922797 -0.22617447 -0.006916576 -0.13494639 0.17947054 -0.15535726
0.109569415 0.3234614 -0.04894835 0.023902351 0.07793666 -0.0013053636 -0.14696032 0.09298196
-0.16345191 -0.06663662 -0.21306342 -0.19000098 0.20876938 0.10124798 0.27071646 0.052557275
-0.07808809 -0.179479 -0.022772605 0.31380442 -0.04750762 -0.040894195 0.32591245 -0.15374443
-0.19029973 -0.16157773 0.17625237 0.21603452 -0.24071257 0.17821959 -0.20147476 -0.19252358
-0.26964718 -0.22084314 0.26706707 -0.31171012 0.016059957 0.17611852 0.24751872 -0.063801035
00000000: e741 28bd 3465 543e 0d92 743d 348c 843e
00000010: 4412 5a3e e197 f0bd d8bc 053e a318 ffbd
00000020: f041 6ebd 20a3 1d3e 2ba7 6d3e ca61 8fbe
00000030: 46d8 b3bc b59c 0a3d 1500 88be 189f 58be
00000040: 1094 3c3b f3e4 da3d 6b02 4c3e 489a 67be
00000050: 72a4 e2bb 632f 0abe 20c7 373e f915 1fbe
00000060: ee65 e03d bc9c a53e 117e 48bd ddce c33c
00000070: 419d 9f3d bc18 abba c47c 16be 536d be3d
00000080: f05f 27be c878 88bd 4c2d 5abe 9e8f 42be
00000090: a4c7 553e 1a5b cf3d 599b 8a3e 4c46 573d
000000a0: a6ec 9fbd 58c9 37be 9d8d babc f9aa a03e
000000b0: 5a97 42bd ac80 27bd ffdd a63e 2e6f 1dbe
000000c0: efdd 42be a274 25be 807b 343e 2738 5d3e
000000d0: 5b7d 76be 327f 363e 664f 4ebe e724 45be
000000e0: 320f 8abe b424 62be 04bd 883e 7898 9fbe
000000f0: 2c90 833c 6a58 343e 8c75 7d3e 1eaa 82bd

network.2.weight f4 [32, 64]
0.09701912 -0.052779585 -0.0061137825 0.044565707 -0.1077968 0.0932529 -0.06391786 -0.02650088
-0.09916237 0.005921662 -0.119724974 0.08473003 -0.050069958 0.055805147 0.01911056 -0.074452326
0.1072322 -0.015466809 -0.057237923 0.0017006844 -0.095844835 -0.041333824 -0.118214205 -0.086439505
0.030060723 -0.07201578 -0.06169626 -0.026370421 0.0045422465 0.124575704 0.07615477 -0.1169578
-0.11128987 -0.029050171 0.09885912 -0.0652902 -0.07107386 0.11700818 -0.11618568 0.09507838
0.07922363 0.0029952824 -0.023895934 -0.10209757 -0.05782062 -0.027087033 0.088917986 -0.043690592
-0.010961086 -0.091808125 -0.0018358976 0.012362719 -0.10780926 -0.1059957 -0.044919252 -0.033215463
0.023806542 -0.05903855 -0.02669774 -0.06908694 -0.028774902 0.11806819 -0.07477395 0.034977973
0.14567216 -0.0036107472 -0.0055354466 0.13257071 0.022607895 -0.11325753 0.07242699 0.15137105
0.12351815 0.13996565 -0.08863449 0.10595383 -0.118548155 -0.09965904 0.06752077 0.0816403
0.16809554 0.061837126 0.08062569 0.01070112 -0.049551293 -0.05576088 0.010600934 -0.09768359
0.03194254 0.04808689 -0.11087945 -0.033104703 -0.15791532 0.047436763 -0.011916873 -0.040416494
-0.03582904 0.13587037 -0.06444085 0.10109203 -0.059500888 -0.0650936 0.06294851 0.112128496
0.025411302 -0.06986314 0.04071178 0.11280782 -0.099686086 0.0754389 0.119866446 -0.06326543
0.030342637 -0.059024293 -0.04702094 -0.06340953 -0.0107354205 -0.05026947 0.07544939 0.02310617
0.02927345 0.045777082 0.023427023 0.08153842 0.16734199 -0.041728716 0.052098997 -0.10252285
0.06368528 -0.090753816 -0.101637915 0.111458205 -0.122983366 -0.050367758 0.11268287 0.067780845
0.038084786 0.1404125 -0.02988049 -0.14017189 0.08286975 -0.1210251 0.03274257 0.12327336
-0.020938672 0.09698978 0.09210276 0.013820845 0.004930994 -0.058751386 -0.09505886 -0.11304713
-0.11873681 0.049641453 -0.0076414393 -0.00039052236 0.111982435 0.07227204 -0.11703712 0.08387437
-0.07232703 -0.0691045 0.12162536 -0.052740633 0.0015052803 -0.0006668695 0.13611037 -0.03910549
-0.082235195 0.09790736 -0.088959835 0.056736127 -0.0700829 0.022850946 -0.0976473 -0.027842358
0.047673356 0.03812692 0.14045684 0.04025037 -0.12778959 -0.048559364 -0.039656315 0.036417205
0.0010732859 -0.025228921 -0.0073576146 -0.055234246 -0.08953855 0.094352 0.16624449 -0.08293836
0.059757356 -0.066119164 0.100484364 0.15271766 -0.0010606658 -0.06515165 -0.042525835 0.16450588
0.11497739 0.14878836 0.08725947 -0.061742004 0.09704835 0.019986354 0.06108649 0.018893838
0.1058405 0.008605008 0.07157006 0.0052870344 0.013828603 0.12211954 -0.08621933 0.066629484
0.0060276818 -0.036706023 -0.039223913 -0.09573533 0.07885666 0.1340259 -0.004861749 0.041319598
-0.017442487 0.008830034 0.11236945 0.12679152 0.12502326 0.06981799 0.06573565 0.07861972
0.0010633256 -0.015735598 -0.013566376 -0.12670182 -0.105824865 0.07502068 0.052637167 -0.03221245
0.09913844 -0.050628863 0.031031284 0.08537674 -0.027073838 0.04341047 -0.025181182 -0.08451011
0.06715907 -0.037176024 0.14395474 0.06670989 0.112977475 0.119479455 0.17551671 -0.042284846
00000000: f6b1 c63d 682f 58bd 2056 c8bb 888a 363d
00000010: 92c4 dcbd 60fb be3d 5ee7 82bd 6018 d9bc
00000020: a415 cbbd 800a c23b 5e32 f5bd f086 ad3d
00000030: 2816 4dbd f093 643d c08d 9c3c 767a 98bd
00000040: 8e9c db3d 8068 7dbc 5072 6abd 80e9 de3a
00000050: 4c4a c4bd a84d 29bd 4a1a f2bd 3207 b1bd
00000060: e841 f63c 027d 93bd 38b5 7cbd c806 d8bc
00000070: 20d7 943b 8c21 ff3d 08f7 9b3d 9287 efbd
00000080: f2eb e3bd a0fa edbc a676 ca3d deb6 85bd
00000090: 2c8f 91bd fca1 ef3d c2f2 edbd 74b8 c23d
000000a0: 0040 a23d 804c 443b 68c1 c3bc 8818 d1bd
000000b0: 50d5 6cbd a0e5 ddbc a21a b63d e8f4 32bd
000000c0: 2096 33bc e605 bcbd 80a2 f0ba 008d 4a3c
000000d0: 1acb dcbd 4614 d9bd 40fd 37bd f00c 08bd
000000e0: f005 c33c 68d2 71bd 38b5 dabc 747d 8dbd
000000f0: 58b9 ebbc bccd f13d 1623 99bd 1045 0f3d
00000100: 152b 153e 49a2 6cbb b162 b5bb 9ec0 073e
00000110: 3134 b93c 90f3 e7bd 9a54 943d 0301 1b3e
00000120: 15f7 fc3d 2853 0f3e 0086 b5bd 52fe d83d
00000130: 60c9 f2bd 0a1a ccbd 5448 8a3d 0833 a73d
00000140: 3d21 2c3e ed48 7d3d 151f a53d c053 2f3c
00000150: 4cf6 4abd 8565 64bd 8aaf 2d3c 560e c8bd
00000160: 2ed6 023d c2f6 443d c414 e3bd cc98 07bd
00000170: 8eb4 21be 0d4d 423d fd3e 43bc c48b 25bd
00000180: 79c1 12bd 9a21 0b3e 90f9 83bd 5709 cf3d
00000190: 34b7 73bd cb4f 85bd 26eb 803d a0a3 e53d
000001a0: 5d2b d03c 6814 8fbd 65c1 263d c907 e73d
000001b0: 3828 ccbd b67f 9a3d 8a7c f53d 4e91 81bd
000001c0: 1f91 f83c 75c3 71bd 0799 40bd dbdc 81bd
000001d0: 9ee3 2fbc 5ce7 4dbd 3685 9a3d 2749 bd3c
000001e0: e0ce ef3c c080 3b3d 07ea bf3c 9dfd a63d
000001f0: b35b 2b3e bbeb 2abd c265 553d 80f7 d1bd
00000200: 6e6d 823d 23dd b9bd 8a27 d0bd 3344 e43d
00000210: b4de fbbd 6c4e 4ebd 47c6 e63d afd0 8a3d
00000220: cbfe 1b3d 4bc8 0f3e eec7 f4bc 3889 0fbe
00000230: 9eb7 a93d 02dc f7bd 131d 063d be76 fc3d
00000240: 9487 abbc 94a2 c63d 5fa0 bc3d d370 623c
00000250: 2d94 a13b 4ba5 70bd 38ae c2bd 4185 e7bd
00000260: 492c f3bd d654 4b3d 0a65 fabb 06bf ccb9
00000270: 0c57 e53d 5d03 943d 28b1 efbd 53c6 ab3d
00000280: 3220 94bd a986 8dbd b716 f93d 9006 58bd
00000290: d34c c53a dbd0 2eba 8460 0b3e 142d 20bd
000002a0: ed6a a8bd a783 c83d 9330 b6bd 2464 683d
000002b0: a087 8fbd e831 bb3c 4ffb c7bd a815 e4bc
000002c0: 2345 433d f92a 1c3d ebd3 0f3e 92dd 243d
000002d0: 46db 02be 2fe6 46bd a96e 22bd 352a 153d
000002e0: 80ad 8c3a e2ac cebc 2518 f1bb 4e3d 62bd
000002f0: fd5f b7bd 9f3b c13d ff3b 2a3e 96db a9bd
00000300: 21c4 743d 7c69 87bd bfca cd3d 0562 1c3e
00000310: 0a06 8bba 3a6e 85bd 922f 2ebd 3b74 283e
00000320: 4479 eb3d fa5b 183e 18b5 b23d 2fe5 7cbd
00000330: 49c1 c63d 6cba a33c d435 7a3d 40c7 9a3c
00000340: e7c2 d83d 05fc 0c3c 5393 923d dc3e ad3b
00000350: 5d91 623c cf19 fa3d c393 b0bd 0a75 883d
00000360: dc83 c53b 0e59 16bd 41a9 20bd e210 c4bd
00000370: 9a7f a13d 163e 093e 4e4f 9fbb bd3e 293d
00000380: 8ce3 8ebc d9ab 103c f421 e63d a3d5 013e
00000390: 1906 003e bcfc 8e3d 6aa0 863d 6003 a13d
000003a0: 495f 8b3a f1e7 80bc 8145 5ebc 1fbe 01be
000003b0: b5ba d8bd 71a4 993d 129a 573d 34f1 03bd
000003c0: 1809 cb3d 3660 4fbd 5235 fe3c 00da ae3d
000003d0: f4c9 ddbc 2dcf 313d c448 cebc a313 adbd
000003e0: b28a 893d e345 18bd df68 133e 329f 883d
000003f0: bc60 e73d a5b1 f43d a7ba 333e e032 2dbd

network.2.bias f4 [32]
0.11249605 -0.07541752 0.1268498 0.08493124 -0.0060942546 0.09265011 0.014629722 0.09168165
0.078345336 0.07689451 -0.082857415 -0.015536658 -0.07509583 0.007950795 -0.014956941 -0.0131004155
-0.121718556 -0.0125077935 0.10230186 0.018519182 0.0661718 0.02079681 -0.0069578052 -0.030813858
0.0345663 -0.03920167 -0.061286867 0.13278605 0.0023093403 0.11781814 -0.03967786 0.018941218
00000000: 5464 e63d 8074 9abd eae4 013e 6ef0 ad3d
00000010: 50b2 c7bb 57bf bd3d 80b1 6f3c 97c3 bb3d
00000020: 8573 a03d de7a 9d3d 26b1 a9bd 778d 7ebc
00000030: d8cb 99bd 0d44 023c f50d 75bc 20a3 56bc
00000040: 9447 f9bd 7ded 4cbc a383 d13d 8ab5 973c
00000050: 1585 873d 125e aa3c 4dfe e3bb 586d fcbc
00000060: 6595 0d3d ee91 20bd f007 7bbd 11f9 073e
00000070: 4d58 173b a34a f13d 4085 22bd 9d2a 9b3c

network.4.weight f4 [3, 32]
0.14939663 -0.053174242 0.2026635 -0.12716696 0.20571734 -0.05221544 -0.11951299 -0.06837598
-0.11175122 -0.03234771 -0.121668756 -0.20803307 -0.10351842 0.11550664 0.110364854 0.14970103
-0.061996326 -0.02844255 -0.024595961 0.0013295057 -0.15864317 -0.040632315 0.13609153 0.14817797
-0.18518955 -0.049198516 0.021828998 -0.17633606 -0.12894277 -0.046989955 -0.054170936 -0.073270425
0.1447527 -0.14460652 0.07191667 -0.1914235 -0.07411638 -0.19005412 0.01208289 0.12949193
0.10488182 0.19813152 0.08423045 -0.1259525 -0.07900009 -0.096567735 -0.032690614 0.060346343
0.14412943 -0.08520726 0.103425 -0.18062913 0.20336156 0.15886223 0.13668303 0.16516751
-0.07401086 -0.05054865 -0.07117922 -0.04856335 0.08378583 0.0012806851 0.11037496 -0.110175766
0.13200411 -0.00086044933 0.15193455 -0.073305376 -0.08445144 0.09993412 -0.054609038 -0.013397885
0.036308356 0.13089316 -0.109884426 0.07483189 -0.10960996 -0.12329027 -0.032024868 0.02980351
-0.027150936 0.061165683 -0.024075909 0.16316256 -0.030190606 -0.009343195 -0.14424361 -0.0051962007
-0.014306177 0.038543712 0.003847802 0.0030790376 0.18286584 0.16663298 -0.16400102 0.01787936
00000000: 6efb 183e 3ccd 59bd 0587 4f3e 0e38 02be
00000010: 91a7 523e dbdf 55bd 3ac3 f4bd b508 8cbd
00000020: d3dd e4bd 087f 04bd 782d f9bd 9f06 55be
00000030: 7701 d4bd bf8e ec3d f806 e23d 3a4b 193e
00000040: dcef 7dbd 5a00 e9bc 787d c9bc cf42 ae3a
00000050: 5b73 22be 126e 26bd 945b 0b3e f7bb 173e
00000060: 54a2 3dbe 6284 49bd bad2 b23c 7191 34be
00000070: 9309 04be 8a78 40bd 58e2 5dbd ce0e 96bd
00000080: 0d3a 143e bb13 14be 0c49 933d 8604 44be
00000090: 54ca 97bd 8c9d 42be 50f7 453c 8899 043e
000000a0: 48cc d63d fde2 4a3e 0481 ac3d b1f9 00be
000000b0: cdca a1bd 4ec5 c5bd 98e6 05bd ba2d 773d
000000c0: aa96 133e 2581 aebd 7dd0 d33d d8f6 38be
000000d0: 033e 503e c8ac 223e a3f6 0b3e ac21 293e
000000e0: 0193 97bd 1a0c 4fbd 69c6 91bd 5dea 46bd
000000f0: e897 ab3d a9dc a73a 440c e23d d5a3 e1bd
00000100: 162c 073e c78f 61ba bb94 1b3e 2121 96bd
00000110: e0f4 acbd 43aa cc3d baad 5fbd cd82 5bbc
00000120: 12b8 143d db08 063e 160b e1bd 7641 993d
00000130: 307b e0bd 9c7f fcbd 822c 03bd 7e26 f43c
00000140: a46b debc de88 7a3d d73a c5bc 1614 273e
00000150: 4a52 f7bc 3314 19bc 99b4 13be e444 aabb
00000160: 7564 6abc 03e0 1d3d 682b 7c3b aec9 493b
00000170: 2f41 3b3e d6a1 2a3e e2ef 27be bc77 923c

network.4.bias f4 [3]
0.13860661 0.02189123 -0.15739793
00000000: e4ee 0d3e 3d55 b33c ec2c 21be
